assets/best_car_net.pt (torch, 4689 bytes, 6 tensors)

fc1.weight f4 [16, 5]
00000000: 86c1 b33f ddff 6c3f 95d9 8f3e ae10 2c40
00000010: 6d86 bcbf 158a 1cbf 7c96 08bf 1f08 e0bf
00000020: 43e3 56bf 7573 283e dc4c d5be b3ab dfbf
00000030: 63e0 873f 62f1 d7bf e84c d83f 6c86 803f
00000040: 0f74 d63f 3cd9 ae3d 95ae 0d3e 8758 e1bf
00000050: 6868 23bf 1ea9 88bf 4089 20bf 44a5 b5be
00000060: 0503 843f 80aa 2ebc 4832 8a3d b91c 90bf
00000070: 90c9 e63f 8ee5 473f 84ee 3cc0 08e4 9abf
00000080: 5e82 9abf 66ce f53f f859 f5be 3cb4 a7be
00000090: 91c2 213f 3d91 9f3d 2a47 e9bf 660c dfbe
000000a0: 5826 a2bf f33a 5fbf 0f2d e23e 943b f6be
000000b0: ab4a 5abd 2083 6abf db7f 833f 21ec e6bf
000000c0: 2688 3ebf ecd7 d53c 9708 883f e0cd 0ebf
000000d0: da05 5b3f 3845 c03e 2aa5 b5bd b8d0 04c0
000000e0: ba08 cbbe d279 97bf 2fb2 503f 63d6 e43f
000000f0: 58d2 25be 6673 933f cad0 3fbd 06a1 513f
00000100: 843e 10be b080 c1be a762 803f 22e9 a1bd
00000110: 550f 803f 9c4f da3e a778 99bf 304e b53e
00000120: 5d49 b8bf 104b d63f 0e8a 41bf 944e 043f
00000130: 40fc 1ebf 6bc9 84bf d662 453f 0bb3 21bf
1.4043434 0.92577916 0.2809569 2.688518 -1.4728523 -0.61148196 -0.5335462 -1.7502478
-0.83940524 0.16450293 -0.41660202 -1.7474273 1.0615352 -1.6870539 1.689847 1.0041022
1.6754168 0.08537528 0.13836129 -1.7605141 -0.63831186 -1.067661 -0.62709427 -0.3547765
1.0313421 -0.010660768 0.06747872 -1.1258765 1.8030262 0.7808465 -2.9520578 -1.210084
-1.2071035 1.9203613 -0.47920203 -0.32754695 0.6318751 0.07791374 -1.8224843 -0.43564147
-1.2667952 -0.87199324 0.44175002 -0.4809233 -0.053293865 -0.9160633 1.0273393 -1.8040811
-0.74426496 0.026103936 1.0627621 -0.5578289 0.85555804 0.3755281 -0.08869393 -2.0752392
-0.39655095 -1.1834052 0.81521887 1.7877926 -0.16193521 1.1519592 -0.046829976 0.8188633
-0.14086348 -0.37793493 1.0030106 -0.07905795 1.0004679 0.42638862 -1.1989945 0.35411215
-1.4397389 1.6741657 -0.7560128 0.516824 -0.6210365 -1.0373968 0.77103937 -0.6316382

fc1.bias f4 [16]
00000000: 0755 b93e 36be ecbf 98b8 1340 9d8c 3bbd
00000010: 02f1 abbe 4b77 753f 2af3 103e 60ee 8a3e
00000020: 3069 f6be 55e5 01bf 1ac2 3dc0 d40e 523f
00000030: a553 95bf b209 aebf 3aab 903e 7359 d53d
0.36197683 -1.8495548 2.3081417 -0.045788396 -0.33582312 0.9588515 0.1415526 0.2713499
-0.48127127 -0.5074056 -2.964972 0.82053876 -1.1666151 -1.3596709 0.28255635 0.10417452

fc2.weight f4 [16, 16]
00000000: f95e 98be 54b4 963f 3e2f 903e 2c3c 6bbc
00000010: 26a1 0abf c15f d9bf d03b 00bc 34c8 703e
00000020: 9c71 5fbf 86a7 a83f d66c c6be c670 9c3f
00000030: e202 17bf aacb d5bf e74c 66bf fa70 03bf
00000040: ba8d 9ebf 5b90 fabf ff93 8b3d b6c0 3f3f
00000050: eff3 91be c66e 04c0 4899 de3f 8f40 3fbf
00000060: 2e9d 7fbe f38c a23e 6393 9cbe 0831 1840
00000070: dd3b a1bf 27d8 19bf bc14 ea3f 40af 6b3d
00000080: eef1 213f e4bb 7a3f f4b5 f4be a8fc 2fbe
00000090: ca65 3d3f 0e0a 153e 61f3 af3f 2af9 b2be
000000a0: 144b e63e c4d2 9d3f 10ff 20bd 06ea c53e
000000b0: 7766 a3bf 17ba 6a3d 3e03 e93f b71a d7bf
000000c0: 1e19 febe 9c48 32bc 50c7 3b3f e8a4 b6bf
000000d0: e3f7 c1bf a432 313e 6d5b e03f 1f1c 8d3f
000000e0: 66f7 d4bf 3160 9fbe 3224 b13f d71f 2d3f
000000f0: 4cb1 563f 874c eabf f903 90bf 1b30 95bf
00000100: 4c4b 203e c7af b63e 1fde fbbe fba5 e13f
00000110: e7e6 803f 6e05 39bf 1e20 00be 125d 0f3f
00000120: 64f6 21c0 6306 c33e bc96 be3f b722 1840
00000130: 2b39 bbbf 666f 9ebf ea1c 49bf f253 1fbe
00000140: 5bc4 8f3f 8ee6 493f 3d0a adbf 42f9 cf3e
00000150: 33e1 9a3f 843e 8abc 279f 513f 07a7 bebf
00000160: b71d 69bf 1560 603f 48d4 cebf a7ae 48bf
00000170: 1161 ae3f a6ca e33e cab9 30bd 6a47 8bbf
00000180: 173f d7bf 68bb 593e 58f4 97bf f673 dbbe
00000190: 30d9 a13f f81d 923f 44e6 39bf 6c0b bfbf
000001a0: be3e ef3e ee34 3f3f 882f e3bd 6ec9 32bf
000001b0: 30c4 5b3f 763c 76bf f59c dcbf 019f 84bf
000001c0: 7052 833f a262 3b3f 21a8 fbbf ef99 293f
000001d0: 0c35 fe3e 8be9 03c0 34ce d33f c3fa c73e
000001e0: f182 d63e ebe3 90bf 5290 2bbe 9cd6 8ebe
000001f0: e481 eabe b04e 8f3f 8d5a 11bf 2a08 493f
00000200: 7aa9 0040 caf1 a2be 289f 3a3f dc95 0c3f
00000210: e4c7 64bf 6e9b d0bf cc47 533f 41a5 dabf
00000220: 4b8b d1be 95db 14bf 5cf4 fa3c 1964 08bf
00000230: 00b5 b5bf 46a7 96bf 0aff 853e 481e 0e3f
00000240: fd8b f03e fc41 ddbf 297a 893e befe 68bf
00000250: f3fe fd3e b678 4e3f b364 56bf b380 833f
00000260: 1c5a 0cbf 2135 f93e 54d6 95be ab98 d7be
00000270: 1b74 0840 d0f8 953e 9f72 1d3f 13bb d33e
00000280: a065 f03f 1f4b ccbf 1a8d 973f 8600 c5be
00000290: ee5c 403e 1825 5dbc 4b28 123f cd19 04bf
000002a0: b776 4940 f65f 1cc0 7942 a8be 4019 4dbe
000002b0: 7be7 15bf e705 06bf c877 47be 950d 873e
000002c0: d872 a8bc 239f 893f 76f6 1ac0 329d 353f
000002d0: 45e0 d83e 3ce2 ebbe 46f7 3bbd f99a 09bf
000002e0: 0198 2abf 790d a33e 0723 a6be 7551 243e
000002f0: 245a 733f 7992 b3bf 0d3d 743e 6e39 d83e
00000300: d83e e63e 9992 c73f 5384 b83f fe6a 6fbf
00000310: cc36 c5bc 1116 bf3f 0975 22bf 6b33 04c0
00000320: cb26 c8be 0220 c33f beca 5d3e 97ec 59bf
00000330: 6cef b63f 15ad 85bf 336a 223f 4617 5cbf
00000340: 07e5 983e fd40 b83f 1da7 c6bf 544e 50be
00000350: 1122 e63e 6c0d f0bf 791a a4be 084d 13bf
00000360: 3349 ecbf c4ea edbe 68e3 2fbf 94b0 4c3d
00000370: c6a8 b03f 9b29 8b3f 6722 eebf 8f41 383f
00000380: 089f 9a3e 5618 b73f e2ae 1f3f db6b 033f
00000390: bfa2 ad3d bdbc 13c0 6839 2d3f 55b3 fabf
000003a0: f59c 183f 5804 583f 37ed 9abf aa4d a7be
000003b0: fb47 e3be 7660 a6bf 5259 36bd 64f1 6f3f
000003c0: 5087 3abf 8747 d5bf 5835 3c3e c84d f73c
000003d0: a49d 95be 52b1 89bf 3cc7 773f e055 7e3f
000003e0: 8f95 abbf 24f1 24bf 6941 efbf ce7d 10bf
000003f0: a810 993d fe40 9abe 8e31 b13f 1cf7 9dbc
-0.29759958 1.1773782 0.28161043 -0.014357608 -0.54152143 -1.6982347 -0.00782676 0.23513871
-0.8728273 1.3176124 -0.3875491 1.2221916 -0.58988774 -1.6702778 -0.89961094 -0.51344264
-1.2387002 -1.9575304 0.068153374 0.7490343 -0.2850642 -2.069261 1.7390528 -0.74707884
-0.24962303 0.3174816 -0.30581197 2.3779926 -1.2596394 -0.6009545 1.8287578 0.05754018
0.6325978 0.9794295 -0.4779507 -0.17186224 0.7398344 0.14554617 1.3746148 -0.34955722
0.44979155 1.2329946 -0.039305747 0.38655108 -1.2765645 0.057306375 1.8204114 -1.6805028
-0.49628538 -0.010881569 0.73351 -1.4269075 -1.5153774 0.17304474 1.7527901 1.1024207
-1.6638 -0.31128076 1.3839171 0.6762671 0.83864284 -1.8304604 -1.1251212 -1.1655306
0.15653723 0.35680982 -0.49192902 1.7628778 1.0070466 -0.7227391 -0.12512252 0.5600139
-2.5306635 0.3809081 1.488975 2.3771188 -1.4626821 -1.2377746 -0.78559744 -0.15559366
1.1231798 0.78867424 -1.351875 0.40619856 1.2099975 -0.016875513 0.8188347 -1.4894723
-0.91060966 0.8764661 -1.6158533 -0.783915 1.3623372 0.44490546 -0.043145932 -1.0881169
-1.6816128 0.21262896 -1.1871443 -0.4286191 1.2644405 1.1415396 -0.7261698 -1.4925361
0.46727556 0.7469014 -0.1109305 -0.6983861 0.85846233 -0.96186006 -1.72354 -1.0361024
1.0259533 0.73197377 -1.9660684 0.6625051 0.49649847 -2.0611293 1.6547303 0.39058504
0.41896775 -1.1319555 -0.16754273 -0.2789811 -0.45802224 1.1195889 -0.56778795 0.7852808
2.010344 -0.31825095 0.72899103 0.5491617 -0.8936751 -1.6297433 0.8253143 -1.7081681
-0.40926585 -0.58147556 0.030634098 -0.53277737 -1.4195862 -1.1769798 0.26171142 0.55514956
0.46981803 -1.7285762 0.26851013 -0.91013706 0.49608573 0.8065294 -0.83747405 1.0273651
-0.54824996 0.48673347 -0.29265082 -0.42108664 2.1320865 0.2929139 0.6150302 0.41353664
1.8781013 -1.5960425 1.1839936 -0.38476962 0.1878545 -0.013497613 0.5709273 -0.5160187
3.1478708 -2.443357 -0.32863215 -0.20029163 -0.58556336 -0.52352756 -0.19479287 0.2637755
-0.020562574 1.075169 -2.4212928 0.70942986 0.42358604 -0.4607104 -0.045890115 -0.53752095
-0.6663819 0.31846216 -0.324486 0.16046698 0.9505942 -1.4029075 0.23851414 0.42231315
0.4496982 1.5591613 1.4415382 -0.9352263 -0.02407398 1.4928609 -0.6345983 -2.0656383
-0.39092097 1.5244143 0.21659371 -0.8512663 1.4291816 -1.0443445 0.634433 -0.8597301
0.29862234 1.4394833 -1.5519749 -0.2034238 0.44947866 -1.8754096 -0.32051447 -0.57539415
-1.8459839 -0.46468174 -0.6870637 0.049973086 1.3801506 1.0872072 -1.8604249 0.71975034
0.30199456 1.4304302 0.62376225 0.5133645 0.08478307 -2.3083947 0.6766572 -1.9585978
0.596145 0.8438163 -1.2103642 -0.3267644 -0.44390854 -1.2998188 -0.044518776 0.9372771
-0.7286272 -1.6662453 0.18379724 0.030188456 -0.29221833 -1.0757239 0.9678838 0.99349785
-1.3405017 -0.6443045 -1.8691837 -0.5644196 0.0747388 -0.3012771 1.3843248 -0.01928287

fc2.bias f4 [16]
00000000: 4cd8 8abf efd4 963e 998f eebe 4441 5dbf
00000010: 2267 8a3f 888d 83bf ed26 d0be fb47 13bf
00000020: 9a6e 0bc0 fd5d 473f f40b d63e 49ff c2bf
00000030: b569 f33d 1dc8 d2be 8390 873d a345 ecbe
-1.0847259 0.2945933 -0.4659393 -0.8642771 1.0812724 -1.0277567 -0.40654698 -0.5753171
-2.1786256 0.7787779 0.41805995 -1.5234157 0.118853964 -0.411683 0.0661936 -0.4614688

fc3.weight f4 [2, 16]
00000000: 6a27 1f3f cad1 b5be 5c29 0e3f 64ac 0dbf
00000010: c49f b7bf 06c2 763e 7e5a f4be 0b9d 2b3f
00000020: e093 4cbf e6b0 703f e4f1 aa3f 2250 4a3f
00000030: f95c 823f f5d3 5dbf 76ae d7be 4d8a 62bf
00000040: 6c69 cdbf eb63 bf3f 901b d0be c8a0 6cbe
00000050: 4560 a6bf 2b58 893e cad3 343e aabf 4d3f
00000060: 1bba bd3f be3f 6dbd 8847 b9be d573 393f
00000070: 52e6 ba3d 7ffe a9bf 175d 0bbf 653f 2b3f
0.62169516 -0.3551162 0.5553186 -0.5534117 -1.4345632 0.24097452 -0.4772529 0.67036504
-0.7991314 0.94019926 1.3355069 0.7902852 1.0184623 -0.86651546 -0.4212529 -0.8849228
-1.6047797 1.4952368 -0.4064603 -0.23108208 -1.2998129 0.2682508 0.17658916 0.8037058
1.482242 -0.057922117 -0.36187387 0.7244237 0.09125961 -1.3280791 -0.5443892 0.6689361

fc3.bias f4 [2]
00000000: ae59 89bf 959f b43e
-1.0730493 0.35278
